2022-04-20 14:54:55,566 - train - INFO - kernel_extract_network(
  (encoder): kernel_generator(
    (basic_block): Sequential()
    (chain0): chain_process(
      (seq): Sequential(
        (0): Sequential(
          (0): Sequential(
            (0): Bottleneck(
              (conv1): Conv2d(3, 3, kernel_size=(1, 1), stride=(1, 1), bias=False)
              (bn1): BatchNorm2d(3, eps=1e-05, momentum=0.1, affine=True, track_running_stats=True)
              (conv2): Conv2d(3, 3, kernel_size=(3, 3), stride=(1, 1), padding=(1, 1), bias=False)
              (bn2): BatchNorm2d(3, eps=1e-05, momentum=0.1, affine=True, track_running_stats=True)
              (conv3): Conv2d(3, 9, kernel_size=(1, 1), stride=(1, 1), bias=False)
              (bn3): BatchNorm2d(9, eps=1e-05, momentum=0.1, affine=True, track_running_stats=True)
              (relu): ReLU(inplace=True)
              (downsample): Sequential(
                (0): Conv2d(3, 9, kernel_size=(1, 1), stride=(1, 1), bias=False)
                (1): BatchNorm2d(9, eps=1e-05, momentum=0.1, affine=True, track_running_stats=True)
              )
            )
            (1): convBlock(
              (conv): Conv2d(9, 9, kernel_size=(3, 3), stride=(3, 3), bias=False)
              (bn): BatchNorm2d(9, eps=1e-05, momentum=0.1, affine=True, track_running_stats=True)
              (relu): ReLU()
              (dropout): Dropout2d(p=0.1, inplace=False)
            )
          )
          (1): Sequential(
            (0): Bottleneck(
              (conv1): Conv2d(9, 9, kernel_size=(1, 1), stride=(1, 1), bias=False)
              (bn1): BatchNorm2d(9, eps=1e-05, momentum=0.1, affine=True, track_running_stats=True)
              (conv2): Conv2d(9, 9, kernel_size=(3, 3), stride=(1, 1), padding=(1, 1), bias=False)
              (bn2): BatchNorm2d(9, eps=1e-05, momentum=0.1, affine=True, track_running_stats=True)
              (conv3): Conv2d(9, 27, kernel_size=(1, 1), stride=(1, 1), bias=False)
              (bn3): BatchNorm2d(27, eps=1e-05, momentum=0.1, affine=True, track_running_stats=True)
              (relu): ReLU(inplace=True)
              (downsample): Sequential(
                (0): Conv2d(9, 27, kernel_size=(1, 1), stride=(1, 1), bias=False)
                (1): BatchNorm2d(27, eps=1e-05, momentum=0.1, affine=True, track_running_stats=True)
              )
            )
            (1): convBlock(
              (conv): Conv2d(27, 27, kernel_size=(3, 3), stride=(3, 3), bias=False)
              (bn): BatchNorm2d(27, eps=1e-05, momentum=0.1, affine=True, track_running_stats=True)
              (relu): ReLU()
              (dropout): Dropout2d(p=0.1, inplace=False)
            )
          )
          (2): Sequential(
            (0): Bottleneck(
              (conv1): Conv2d(27, 27, kernel_size=(1, 1), stride=(1, 1), bias=False)
              (bn1): BatchNorm2d(27, eps=1e-05, momentum=0.1, affine=True, track_running_stats=True)
              (conv2): Conv2d(27, 27, kernel_size=(3, 3), stride=(1, 1), padding=(1, 1), bias=False)
              (bn2): BatchNorm2d(27, eps=1e-05, momentum=0.1, affine=True, track_running_stats=True)
              (conv3): Conv2d(27, 81, kernel_size=(1, 1), stride=(1, 1), bias=False)
              (bn3): BatchNorm2d(81, eps=1e-05, momentum=0.1, affine=True, track_running_stats=True)
              (relu): ReLU(inplace=True)
              (downsample): Sequential(
                (0): Conv2d(27, 81, kernel_size=(1, 1), stride=(1, 1), bias=False)
                (1): BatchNorm2d(81, eps=1e-05, momentum=0.1, affine=True, track_running_stats=True)
              )
            )
            (1): convBlock(
              (conv): Conv2d(81, 81, kernel_size=(3, 3), stride=(3, 3), bias=False)
              (bn): BatchNorm2d(81, eps=1e-05, momentum=0.1, affine=True, track_running_stats=True)
              (relu): ReLU()
              (dropout): Dropout2d(p=0.1, inplace=False)
            )
          )
          (3): Sequential(
            (0): Bottleneck(
              (conv1): Conv2d(81, 81, kernel_size=(1, 1), stride=(1, 1), bias=False)
              (bn1): BatchNorm2d(81, eps=1e-05, momentum=0.1, affine=True, track_running_stats=True)
              (conv2): Conv2d(81, 81, kernel_size=(3, 3), stride=(1, 1), padding=(1, 1), bias=False)
              (bn2): BatchNorm2d(81, eps=1e-05, momentum=0.1, affine=True, track_running_stats=True)
              (conv3): Conv2d(81, 243, kernel_size=(1, 1), stride=(1, 1), bias=False)
              (bn3): BatchNorm2d(243, eps=1e-05, momentum=0.1, affine=True, track_running_stats=True)
              (relu): ReLU(inplace=True)
              (downsample): Sequential(
                (0): Conv2d(81, 243, kernel_size=(1, 1), stride=(1, 1), bias=False)
                (1): BatchNorm2d(243, eps=1e-05, momentum=0.1, affine=True, track_running_stats=True)
              )
            )
            (1): convBlock(
              (conv): Conv2d(243, 243, kernel_size=(3, 3), stride=(3, 3), bias=False)
              (bn): BatchNorm2d(243, eps=1e-05, momentum=0.1, affine=True, track_running_stats=True)
              (relu): ReLU()
              (dropout): Dropout2d(p=0.1, inplace=False)
            )
          )
        )
      )
    )
    (chain1): chain_process(
      (seq): Sequential(
        (0): downSample(
          (downsample): MaxPool2d(kernel_size=3, stride=3, padding=1, dilation=1, ceil_mode=False)
        )
        (1): Sequential(
          (0): Sequential(
            (0): Bottleneck(
              (conv1): Conv2d(3, 3, kernel_size=(1, 1), stride=(1, 1), bias=False)
              (bn1): BatchNorm2d(3, eps=1e-05, momentum=0.1, affine=True, track_running_stats=True)
              (conv2): Conv2d(3, 3, kernel_size=(3, 3), stride=(1, 1), padding=(1, 1), bias=False)
              (bn2): BatchNorm2d(3, eps=1e-05, momentum=0.1, affine=True, track_running_stats=True)
              (conv3): Conv2d(3, 9, kernel_size=(1, 1), stride=(1, 1), bias=False)
              (bn3): BatchNorm2d(9, eps=1e-05, momentum=0.1, affine=True, track_running_stats=True)
              (relu): ReLU(inplace=True)
              (downsample): Sequential(
                (0): Conv2d(3, 9, kernel_size=(1, 1), stride=(1, 1), bias=False)
                (1): BatchNorm2d(9, eps=1e-05, momentum=0.1, affine=True, track_running_stats=True)
              )
            )
            (1): convBlock(
              (conv): Conv2d(9, 9, kernel_size=(3, 3), stride=(3, 3), bias=False)
              (bn): BatchNorm2d(9, eps=1e-05, momentum=0.1, affine=True, track_running_stats=True)
              (relu): ReLU()
              (dropout): Dropout2d(p=0.1, inplace=False)
            )
          )
          (1): Sequential(
            (0): Bottleneck(
              (conv1): Conv2d(9, 9, kernel_size=(1, 1), stride=(1, 1), bias=False)
              (bn1): BatchNorm2d(9, eps=1e-05, momentum=0.1, affine=True, track_running_stats=True)
              (conv2): Conv2d(9, 9, kernel_size=(3, 3), stride=(1, 1), padding=(1, 1), bias=False)
              (bn2): BatchNorm2d(9, eps=1e-05, momentum=0.1, affine=True, track_running_stats=True)
              (conv3): Conv2d(9, 27, kernel_size=(1, 1), stride=(1, 1), bias=False)
              (bn3): BatchNorm2d(27, eps=1e-05, momentum=0.1, affine=True, track_running_stats=True)
              (relu): ReLU(inplace=True)
              (downsample): Sequential(
                (0): Conv2d(9, 27, kernel_size=(1, 1), stride=(1, 1), bias=False)
                (1): BatchNorm2d(27, eps=1e-05, momentum=0.1, affine=True, track_running_stats=True)
              )
            )
            (1): convBlock(
              (conv): Conv2d(27, 27, kernel_size=(3, 3), stride=(3, 3), bias=False)
              (bn): BatchNorm2d(27, eps=1e-05, momentum=0.1, affine=True, track_running_stats=True)
              (relu): ReLU()
              (dropout): Dropout2d(p=0.1, inplace=False)
            )
          )
          (2): Sequential(
            (0): Bottleneck(
              (conv1): Conv2d(27, 27, kernel_size=(1, 1), stride=(1, 1), bias=False)
              (bn1): BatchNorm2d(27, eps=1e-05, momentum=0.1, affine=True, track_running_stats=True)
              (conv2): Conv2d(27, 27, kernel_size=(3, 3), stride=(1, 1), padding=(1, 1), bias=False)
              (bn2): BatchNorm2d(27, eps=1e-05, momentum=0.1, affine=True, track_running_stats=True)
              (conv3): Conv2d(27, 81, kernel_size=(1, 1), stride=(1, 1), bias=False)
              (bn3): BatchNorm2d(81, eps=1e-05, momentum=0.1, affine=True, track_running_stats=True)
              (relu): ReLU(inplace=True)
              (downsample): Sequential(
                (0): Conv2d(27, 81, kernel_size=(1, 1), stride=(1, 1), bias=False)
                (1): BatchNorm2d(81, eps=1e-05, momentum=0.1, affine=True, track_running_stats=True)
              )
            )
            (1): convBlock(
              (conv): Conv2d(81, 81, kernel_size=(3, 3), stride=(3, 3), bias=False)
              (bn): BatchNorm2d(81, eps=1e-05, momentum=0.1, affine=True, track_running_stats=True)
              (relu): ReLU()
              (dropout): Dropout2d(p=0.1, inplace=False)
            )
          )
        )
      )
    )
    (chain2): chain_process(
      (seq): Sequential(
        (0): downSample(
          (downsample): MaxPool2d(kernel_size=3, stride=3, padding=1, dilation=1, ceil_mode=False)
        )
        (1): downSample(
          (downsample): MaxPool2d(kernel_size=3, stride=3, padding=1, dilation=1, ceil_mode=False)
        )
        (2): Sequential(
          (0): Sequential(
            (0): Bottleneck(
              (conv1): Conv2d(3, 3, kernel_size=(1, 1), stride=(1, 1), bias=False)
              (bn1): BatchNorm2d(3, eps=1e-05, momentum=0.1, affine=True, track_running_stats=True)
              (conv2): Conv2d(3, 3, kernel_size=(3, 3), stride=(1, 1), padding=(1, 1), bias=False)
              (bn2): BatchNorm2d(3, eps=1e-05, momentum=0.1, affine=True, track_running_stats=True)
              (conv3): Conv2d(3, 9, kernel_size=(1, 1), stride=(1, 1), bias=False)
              (bn3): BatchNorm2d(9, eps=1e-05, momentum=0.1, affine=True, track_running_stats=True)
              (relu): ReLU(inplace=True)
              (downsample): Sequential(
                (0): Conv2d(3, 9, kernel_size=(1, 1), stride=(1, 1), bias=False)
                (1): BatchNorm2d(9, eps=1e-05, momentum=0.1, affine=True, track_running_stats=True)
              )
            )
            (1): convBlock(
              (conv): Conv2d(9, 9, kernel_size=(3, 3), stride=(3, 3), bias=False)
              (bn): BatchNorm2d(9, eps=1e-05, momentum=0.1, affine=True, track_running_stats=True)
              (relu): ReLU()
              (dropout): Dropout2d(p=0.1, inplace=False)
            )
          )
          (1): Sequential(
            (0): Bottleneck(
              (conv1): Conv2d(9, 9, kernel_size=(1, 1), stride=(1, 1), bias=False)
              (bn1): BatchNorm2d(9, eps=1e-05, momentum=0.1, affine=True, track_running_stats=True)
              (conv2): Conv2d(9, 9, kernel_size=(3, 3), stride=(1, 1), padding=(1, 1), bias=False)
              (bn2): BatchNorm2d(9, eps=1e-05, momentum=0.1, affine=True, track_running_stats=True)
              (conv3): Conv2d(9, 27, kernel_size=(1, 1), stride=(1, 1), bias=False)
              (bn3): BatchNorm2d(27, eps=1e-05, momentum=0.1, affine=True, track_running_stats=True)
              (relu): ReLU(inplace=True)
              (downsample): Sequential(
                (0): Conv2d(9, 27, kernel_size=(1, 1), stride=(1, 1), bias=False)
                (1): BatchNorm2d(27, eps=1e-05, momentum=0.1, affine=True, track_running_stats=True)
              )
            )
            (1): convBlock(
              (conv): Conv2d(27, 27, kernel_size=(3, 3), stride=(3, 3), bias=False)
              (bn): BatchNorm2d(27, eps=1e-05, momentum=0.1, affine=True, track_running_stats=True)
              (relu): ReLU()
              (dropout): Dropout2d(p=0.1, inplace=False)
            )
          )
        )
      )
    )
    (chain3): chain_process(
      (seq): Sequential(
        (0): downSample(
          (downsample): MaxPool2d(kernel_size=3, stride=3, padding=1, dilation=1, ceil_mode=False)
        )
        (1): downSample(
          (downsample): MaxPool2d(kernel_size=3, stride=3, padding=1, dilation=1, ceil_mode=False)
        )
        (2): downSample(
          (downsample): MaxPool2d(kernel_size=3, stride=3, padding=1, dilation=1, ceil_mode=False)
        )
        (3): Sequential(
          (0): Sequential(
            (0): Bottleneck(
              (conv1): Conv2d(3, 3, kernel_size=(1, 1), stride=(1, 1), bias=False)
              (bn1): BatchNorm2d(3, eps=1e-05, momentum=0.1, affine=True, track_running_stats=True)
              (conv2): Conv2d(3, 3, kernel_size=(3, 3), stride=(1, 1), padding=(1, 1), bias=False)
              (bn2): BatchNorm2d(3, eps=1e-05, momentum=0.1, affine=True, track_running_stats=True)
              (conv3): Conv2d(3, 9, kernel_size=(1, 1), stride=(1, 1), bias=False)
              (bn3): BatchNorm2d(9, eps=1e-05, momentum=0.1, affine=True, track_running_stats=True)
              (relu): ReLU(inplace=True)
              (downsample): Sequential(
                (0): Conv2d(3, 9, kernel_size=(1, 1), stride=(1, 1), bias=False)
                (1): BatchNorm2d(9, eps=1e-05, momentum=0.1, affine=True, track_running_stats=True)
              )
            )
            (1): convBlock(
              (conv): Conv2d(9, 9, kernel_size=(3, 3), stride=(3, 3), bias=False)
              (bn): BatchNorm2d(9, eps=1e-05, momentum=0.1, affine=True, track_running_stats=True)
              (relu): ReLU()
              (dropout): Dropout2d(p=0.1, inplace=False)
            )
          )
        )
      )
    )
    (chain4): chain_process(
      (seq): Sequential(
        (0): downSample(
          (downsample): MaxPool2d(kernel_size=3, stride=3, padding=1, dilation=1, ceil_mode=False)
        )
        (1): downSample(
          (downsample): MaxPool2d(kernel_size=3, stride=3, padding=1, dilation=1, ceil_mode=False)
        )
        (2): downSample(
          (downsample): MaxPool2d(kernel_size=3, stride=3, padding=1, dilation=1, ceil_mode=False)
        )
        (3): downSample(
          (downsample): MaxPool2d(kernel_size=3, stride=3, padding=1, dilation=1, ceil_mode=False)
        )
        (4): Sequential()
      )
    )
    (oneSizeConv): oneSizeConv(
      (CBR): convBlock(
        (conv): Conv2d(363, 127, kernel_size=(1, 1), stride=(1, 1), bias=False)
        (bn): BatchNorm2d(127, eps=1e-05, momentum=0.1, affine=True, track_running_stats=True)
        (relu): ReLU()
        (dropout): Dropout2d(p=0.1, inplace=False)
      )
    )
  )
  (decoder): classify_decoder(
    (CBR): convBlock(
      (conv): Conv2d(127, 127, kernel_size=(3, 3), stride=(1, 1), bias=False)
      (bn): BatchNorm2d(127, eps=1e-05, momentum=0.1, affine=True, track_running_stats=True)
      (relu): ReLU()
      (dropout): Dropout2d(p=0.1, inplace=False)
    )
    (MLP): MLP(
      (inp): Linear(in_features=127, out_features=64, bias=True)
      (bn1): BatchNorm1d(64, eps=1e-05, momentum=0.1, affine=True, track_running_stats=True)
      (relu1): LeakyReLU(negative_slope=0.01)
      (hidden): Linear(in_features=64, out_features=50, bias=True)
      (bn2): BatchNorm1d(50, eps=1e-05, momentum=0.1, affine=True, track_running_stats=True)
      (relu2): LeakyReLU(negative_slope=0.01)
    )
  )
)
2022-04-20 14:57:38,258 - trainer - INFO -     epoch          : 1
2022-04-20 14:57:38,260 - trainer - INFO -     loss           : 0.6758305963717008
2022-04-20 14:57:38,261 - trainer - INFO -     accuracy       : 0.092844283428165
2022-04-20 14:57:38,261 - trainer - INFO -     top_k_acc      : 0.19571257112375534
…
